…
```
from transformers import AutoModelForImageClassification, TrainingArguments, Trainer

model = AutoModelForImageClassification.from_pretrained(
    "google/vit-base-patch16-224-in21k",
    ignore_mismatched_sizes=True,
)
# 打印模型的结构，查看有哪些模块
for name, module in model.named_modules():
    print(name,"=", module)
```
输出，其中ViTForImageClassification就是用于图形分类的模块，如果通过AutoModelForImageClassification，加载的必然是这个模块，后面我们通过lora优化的是其中的模块的和层，输出的是最后的classifier层。

```
 = ViTForImageClassification(
  (vit): ViTModel(
    (embeddings): ViTEmbeddings(
      (patch_embeddings): ViTPatchEmbeddings(
        (projection): Conv2d(3, 768, kernel_size=(16, 16), stride=(16, 16))
      )
      (dropout): Dropout(p=0.0, inplace=False)
    )
    (encoder): ViTEncoder(
      (layer): ModuleList(
        (0-11): 12 x ViTLayer(
          (attention): ViTSdpaAttention(
            (attention): ViTSdpaSelfAttention(
              (query): Linear(in_features=768, out_features=768, bias=True)
              (key): Linear(in_features=768, out_features=768, bias=True)
              (value): Linear(in_features=768, out_features=768, bias=True)
              (dropout): Dropout(p=0.0, inplace=False)
            )
            (output): ViTSelfOutput(
              (dense): Linear(in_features=768, out_features=768, bias=True)
              (dropout): Dropout(p=0.0, inplace=False)
            )
          )
          (intermediate): ViTIntermediate(
            (dense): Linear(in_features=768, out_features=3072, bias=True)
            (intermediate_act_fn): GELUActivation()
          )
          (output): ViTOutput(
            (dense): Linear(in_features=3072, out_features=768, bias=True)
            (dropout): Dropout(p=0.0, inplace=False)
          )
          (layernorm_before): LayerNorm((768,), eps=1e-12, elementwise_affine=True)
          (layernorm_after): LayerNorm((768,), eps=1e-12, elementwise_affine=True)
        )
      )
    )
    (layernorm): LayerNorm((768,), eps=1e-12, elementwise_affine=True)
  )
  (classifier): Linear(in_features=768, out_features=2, bias=True)
)
vit = ViTModel(
  (embeddings): ViTEmbeddings(
    (patch_embeddings): ViTPatchEmbeddings(
      (projection): Conv2d(3, 768, kernel_size=(16, 16), stride=(16, 16))
    )
    (dropout): Dropout(p=0.0, inplace=False)
  )
  (encoder): ViTEncoder(
    (layer): ModuleList(
      (0-11): 12 x ViTLayer(
        (attention): ViTSdpaAttention(
          (attention): ViTSdpaSelfAttention(
            (query): Linear(in_features=768, out_features=768, bias=True)
            (key): Linear(in_features=768, out_features=768, bias=True)
            (value): Linear(in_features=768, out_features=768, bias=True)
            (dropout): Dropout(p=0.0, inplace=False)
          )
          (output): ViTSelfOutput(
            (dense): Linear(in_features=768, out_features=768, bias=True)
            (dropout): Dropout(p=0.0, inplace=False)
          )
        )
        (intermediate): ViTIntermediate(
          (dense): Linear(in_features=768, out_features=3072, bias=True)
          (intermediate_act_fn): GELUActivation()
        )
        (output): ViTOutput(
          (dense): Linear(in_features=3072, out_features=768, bias=True)
          (dropout): Dropout(p=0.0, inplace=False)
        )
        (layernorm_before): LayerNorm((768,), eps=1e-12, elementwise_affine=True)
        (layernorm_after): LayerNorm((768,), eps=1e-12, elementwise_affine=True)
      )
    )
  )
  (layernorm): LayerNorm((768,), eps=1e-12, elementwise_affine=True)
)
vit.embeddings = ViTEmbeddings(
  (patch_embeddings): ViTPatchEmbeddings(
    (projection): Conv2d(3, 768, kernel_size=(16, 16), stride=(16, 16))
  )
  (dropout): Dropout(p=0.0, inplace=False)
)
vit.embeddings.patch_embeddings = ViTPatchEmbeddings(
  (projection): Conv2d(3, 768, kernel_size=(16, 16), stride=(16, 16))
)
。。。
classifier = Linear(in_features=768, out_features=2, bias=True)
```

### google/vit-base-patch16-224
是一个在大规模图像数据集上进行监督预训练的转换器编码器模型（类似于BERT），即ImageNet-21k，分辨率为224x224像素。接下来，该模型在ImageNet上进行微调（也称为ILSVRC2012），这是一个包含100万张图像和1000个类别的数据集，分辨率也为224x224。

图像被呈现给模型作为固定大小补丁（分辨率为16x16）的序列，这些补丁被线性嵌入。还在序列开始处添加了一个[CLS]标记，以用于分类任务。在将序列馈送到Transformer编码器的层之前，还会添加绝对位置嵌入。
…
