…
self.value.bias', 'bert.model.encoder.layer.9.attention.self.value.weight', 'bert.model.encoder.layer.9.intermediate.dense.bias', 'bert.model.encoder.layer.9.intermediate.dense.weight', 'bert.model.encoder.layer.9.output.LayerNorm.bias', 'bert.model.encoder.layer.9.output.LayerNorm.weight', 'bert.model.encoder.layer.9.output.dense.bias', 'bert.model.encoder.layer.9.output.dense.weight']
You should probably TRAIN this model on a down-stream task to be able to use it for predictions and inference.

BertForPartwiseCLs(
  (model): BertModel(
    (embeddings): BertEmbeddings(
      (word_embeddings): Embedding(21128, 768, padding_idx=0)
      (position_embeddings): Embedding(512, 768)
      (token_type_embeddings): Embedding(2, 768)
      (LayerNorm): LayerNorm((768,), eps=1e-12, elementwise_affine=True)
      (dropout): Dropout(p=0.1, inplace=False)
    )
    (encoder): BertEncoder(
      (layer): ModuleList(
        (0-11): 12 x BertLayer(
          (attention): BertAttention(
            (self): BertSelfAttention(
              (query): Linear(in_features=768, out_features=768, bias=True)
              (key): Linear(in_features=768, out_features=768, bias=True)
              (value): Linear(in_features=768, out_features=768, bias=True)
              (dropout): Dropout(p=0.1, inplace=False)
            )
            (output): BertSelfOutput(
              (dense): Linear(in_features=768, out_features=768, bias=True)
              (LayerNorm): LayerNorm((768,), eps=1e-12, elementwise_affine=True)
              (dropout): Dropout(p=0.1, inplace=False)
            )
          )
          (intermediate): BertIntermediate(
            (dense): Linear(in_features=768, out_features=3072, bias=True)
            (intermediate_act_fn): GELUActivation()
          )
          (output): BertOutput(
            (dense): Linear(in_features=3072, out_features=768, bias=True)
            (LayerNorm): LayerNorm((768,), eps=1e-12, elementwise_affine=True)
            (dropout): Dropout(p=0.1, inplace=False)
          )
        )
      )
    )
  )
  (dropout): Dropout(p=0.1, inplace=False)
  (classifier): Linear(in_features=768, out_features=2, bias=True)
)
torch.Size([4, 2])

```
可以看到模型输出了一个 4×2 的张量，符合我们的预期（每个样本输出 2 维的 logits 值分别表示两个类别的预测分数，batch 内共 4 个样本）。

### tqdm使用
tqdm是一个Python库,用于在终端中显示进度条。它广泛应用于各种数据处理任务中,如循环、迭代器、pandas数据帧等。以下是对tqdm的简要介绍:

- 简单易用: tqdm提供了简单直观的API,可以快速集成到代码中,只需要几行代码即可实现进度条显示。
- 丰富的功能: tqdm不仅可以显示进度条,还可以显示预估的剩余时间、完成百分比、已处理的数据量等信息。
- 自动检测环境: tqdm可以自动检测运行环境,在支持ANSI转义码的终端中使用动态进度条,在不支持的环境中使用静态进度条。
…
